LMambaNet(
  (enc1): DIDCBlock(
    (proj): Sequential(
      (0): Conv3d(4, 2, kernel_size=(1, 1, 1), stride=(1, 1, 1), bias=False)
      (1): InstanceNorm3d(2, eps=1e-05, momentum=0.1, affine=False, track_running_stats=False)
      (2): SiLU(inplace=True)
    )
    (branch_a): Conv3d(2, 2, kernel_size=(3, 3, 3), stride=(1, 1, 1), padding=(1, 1, 1), groups=2, bias=False)
    (branch_b): Conv3d(2, 2, kernel_size=(3, 3, 3), stride=(1, 1, 1), padding=(2, 2, 2), dilation=(2, 2, 2), groups=2, bias=False)
    (branch_c): Conv3d(2, 2, kernel_size=(3, 3, 3), stride=(1, 1, 1), padding=(3, 3, 3), dilation=(3, 3, 3), groups=2, bias=False)
    (fuse): Sequential(
      (0): Conv3d(6, 32, kernel_size=(1, 1, 1), stride=(1, 1, 1), bias=False)
      (1): InstanceNorm3d(32, eps=1e-05, momentum=0.1, affine=False, track_running_stats=False)
      (2): SiLU(inplace=True)
    )
    (residual_proj): Sequential(
      (0): Conv3d(4, 32, kernel_size=(1, 1, 1), stride=(1, 1, 1), bias=False)
      (1): InstanceNorm3d(32, eps=1e-05, momentum=0.1, affine=False, track_running_stats=False)
    )
  )
  (down1): Conv3d(32, 64, kernel_size=(3, 3, 3), stride=(2, 2, 2), padding=(1, 1, 1), bias=False)
  (enc2): DIDCBlock(
    (proj): Sequential(
      (0): Conv3d(64, 32, kernel_size=(1, 1, 1), stride=(1, 1, 1), bias=False)
      (1): InstanceNorm3d(32, eps=1e-05, momentum=0.1, affine=False, track_running_stats=False)
      (2): SiLU(inplace=True)
    )
    (branch_a): Conv3d(32, 32, kernel_size=(3, 3, 3), stride=(1, 1, 1), padding=(1, 1, 1), groups=32, bias=False)
    (branch_b): Conv3d(32, 32, kernel_size=(3, 3, 3), stride=(1, 1, 1), padding=(2, 2, 2), dilation=(2, 2, 2), groups=32, bias=False)
    (branch_c): Conv3d(32, 32, kernel_size=(3, 3, 3), stride=(1, 1, 1), padding=(3, 3, 3), dilation=(3, 3, 3), groups=32, bias=False)
    (fuse): Sequential(
      (0): Conv3d(96, 64, kernel_size=(1, 1, 1), stride=(1, 1, 1), bias=False)
      (1): InstanceNorm3d(64, eps=1e-05, momentum=0.1, affine=False, track_running_stats=False)
      (2): SiLU(inplace=True)
    )
    (residual_proj): Identity()
  )
  (down2): Conv3d(64, 128, kernel_size=(3, 3, 3), stride=(2, 2, 2), padding=(1, 1, 1), bias=False)
  (enc3): DIDCBlock(
    (proj): Sequential(
      (0): Conv3d(128, 64, kernel_size=(1, 1, 1), stride=(1, 1, 1), bias=False)
      (1): InstanceNorm3d(64, eps=1e-05, momentum=0.1, affine=False, track_running_stats=False)
      (2): SiLU(inplace=True)
    )
    (branch_a): Conv3d(64, 64, kernel_size=(3, 3, 3), stride=(1, 1, 1), padding=(1, 1, 1), groups=64, bias=False)
    (branch_b): Conv3d(64, 64, kernel_size=(3, 3, 3), stride=(1, 1, 1), padding=(2, 2, 2), dilation=(2, 2, 2), groups=64, bias=False)
    (branch_c): Conv3d(64, 64, kernel_size=(3, 3, 3), stride=(1, 1, 1), padding=(3, 3, 3), dilation=(3, 3, 3), groups=64, bias=False)
    (fuse): Sequential(
      (0): Conv3d(192, 128, kernel_size=(1, 1, 1), stride=(1, 1, 1), bias=False)
      (1): InstanceNorm3d(128, eps=1e-05, momentum=0.1, affine=False, track_running_stats=False)
      (2): SiLU(inplace=True)
    )
    (residual_proj): Identity()
  )
  (down3): Conv3d(128, 256, kernel_size=(3, 3, 3), stride=(2, 2, 2), padding=(1, 1, 1), bias=False)
  (bottleneck): VSSBottleneck(
    (norm): LayerNorm((256,), eps=1e-05, elementwise_affine=True)
    (sequence_model): _GRUFallback(
      (gru): GRU(256, 256, batch_first=True)
    )
  )
  (up3): ConvTranspose3d(256, 128, kernel_size=(2, 2, 2), stride=(2, 2, 2))
  (dec3): DIDCBlock(
    (proj): Sequential(
      (0): Conv3d(256, 128, kernel_size=(1, 1, 1), stride=(1, 1, 1), bias=False)
      (1): InstanceNorm3d(128, eps=1e-05, momentum=0.1, affine=False, track_running_stats=False)
      (2): SiLU(inplace=True)
    )
    (branch_a): Conv3d(128, 128, kernel_size=(3, 3, 3), stride=(1, 1, 1), padding=(1, 1, 1), groups=128, bias=False)
    (branch_b): Conv3d(128, 128, kernel_size=(3, 3, 3), stride=(1, 1, 1), padding=(2, 2, 2), dilation=(2, 2, 2), groups=128, bias=False)
    (branch_c): Conv3d(128, 128, kernel_size=(3, 3, 3), stride=(1, 1, 1), padding=(3, 3, 3), dilation=(3, 3, 3), groups=128, bias=False)
    (fuse): Sequential(
      (0): Conv3d(384, 128, kernel_size=(1, 1, 1), stride=(1, 1, 1), bias=False)
      (1): InstanceNorm3d(128, eps=1e-05, momentum=0.1, affine=False, track_running_stats=False)
      (2): SiLU(inplace=True)
    )
    (residual_proj): Sequential(
      (0): Conv3d(256, 128, kernel_size=(1, 1, 1), stride=(1, 1, 1), bias=False)
      (1): InstanceNorm3d(128, eps=1e-05, momentum=0.1, affine=False, track_running_stats=False)
    )
  )
  (up2): ConvTranspose3d(128, 64, kernel_size=(2, 2, 2), stride=(2, 2, 2))
  (dec2): DIDCBlock(
    (proj): Sequential(
      (0): Conv3d(128, 64, kernel_size=(1, 1, 1), stride=(1, 1, 1), bias=False)
      (1): InstanceNorm3d(64, eps=1e-05, momentum=0.1, affine=False, track_running_stats=False)
      (2): SiLU(inplace=True)
    )
    (branch_a): Conv3d(64, 64, kernel_size=(3, 3, 3), stride=(1, 1, 1), padding=(1, 1, 1), groups=64, bias=False)
    (branch_b): Conv3d(64, 64, kernel_size=(3, 3, 3), stride=(1, 1, 1), padding=(2, 2, 2), dilation=(2, 2, 2), groups=64, bias=False)
    (branch_c): Conv3d(64, 64, kernel_size=(3, 3, 3), stride=(1, 1, 1), padding=(3, 3, 3), dilation=(3, 3, 3), groups=64, bias=False)
    (fuse): Sequential(
      (0): Conv3d(192, 64, kernel_size=(1, 1, 1), stride=(1, 1, 1), bias=False)
      (1): InstanceNorm3d(64, eps=1e-05, momentum=0.1, affine=False, track_running_stats=False)
      (2): SiLU(inplace=True)
    )
    (residual_proj): Sequential(
      (0): Conv3d(128, 64, kernel_size=(1, 1, 1), stride=(1, 1, 1), bias=False)
      (1): InstanceNorm3d(64, eps=1e-05, momentum=0.1, affine=False, track_running_stats=False)
    )
  )
  (up1): ConvTranspose3d(64, 32, kernel_size=(2, 2, 2), stride=(2, 2, 2))
  (dec1): DIDCBlock(
    (proj): Sequential(
      (0): Conv3d(64, 32, kernel_size=(1, 1, 1), stride=(1, 1, 1), bias=False)
      (1): InstanceNorm3d(32, eps=1e-05, momentum=0.1, affine=False, track_running_stats=False)
      (2): SiLU(inplace=True)
    )
    (branch_a): Conv3d(32, 32, kernel_size=(3, 3, 3), stride=(1, 1, 1), padding=(1, 1, 1), groups=32, bias=False)
    (branch_b): Conv3d(32, 32, kernel_size=(3, 3, 3), stride=(1, 1, 1), padding=(2, 2, 2), dilation=(2, 2, 2), groups=32, bias=False)
    (branch_c): Conv3d(32, 32, kernel_size=(3, 3, 3), stride=(1, 1, 1), padding=(3, 3, 3), dilation=(3, 3, 3), groups=32, bias=False)
    (fuse): Sequential(
      (0): Conv3d(96, 32, kernel_size=(1, 1, 1), stride=(1, 1, 1), bias=False)
      (1): InstanceNorm3d(32, eps=1e-05, momentum=0.1, affine=False, track_running_stats=False)
      (2): SiLU(inplace=True)
    )
    (residual_proj): Sequential(
      (0): Conv3d(64, 32, kernel_size=(1, 1, 1), stride=(1, 1, 1), bias=False)
      (1): InstanceNorm3d(32, eps=1e-05, momentum=0.1, affine=False, track_running_stats=False)
    )
  )
  (head): Conv3d(32, 3, kernel_size=(1, 1, 1), stride=(1, 1, 1))
)
train:  90%|█████████ | 9/10 [00:58<00:06,  6.56s/it]
Train Epoch: 1 [0/10 (0%)] Loss: 0.999751
val: 100%|██████████| 2/2 [00:03<00:00,  1.91s/it]
test: 100%|██████████| 2/2 [00:03<00:00,  1.97s/it]
    epoch          : 1
    loss           : 0.9997506141662598
    grad_norm      : 0.003470189869403839
    TRAIN_MeanDice : 4.061575236846693e-05
    val_loss       : 0.9310379326343536
…
